…
    "model.compile(loss='binary_crossentropy',\n",
    "              optimizer='adam',\n",
    "              metrics=['accuracy'])\n"
   ]
  },
  {
   "cell_type": "code",
   "execution_count": 9,
   "id": "fe300990",
   "metadata": {},
   "outputs": [
    {
     "name": "stdout",
     "output_type": "stream",
     "text": [
      "Model: \"sequential_1\"\n",
      "_________________________________________________________________\n",
      " Layer (type)                Output Shape              Param #   \n",
      "=================================================================\n",
      " conv2d_3 (Conv2D)           (None, 128, 128, 32)      896       \n",
      "                                                                 \n",
      " max_pooling2d_3 (MaxPoolin  (None, 64, 64, 32)        0         \n",
      " g2D)                                                            \n",
      "                                                                 \n",
      " conv2d_4 (Conv2D)           (None, 62, 62, 64)        18496     \n",
      "                                                                 \n",
      " max_pooling2d_4 (MaxPoolin  (None, 31, 31, 64)        0         \n",
      " g2D)                                                            \n",
      "                                                                 \n",
      " conv2d_5 (Conv2D)           (None, 29, 29, 64)        36928     \n",
      "                                                                 \n",
      " max_pooling2d_5 (MaxPoolin  (None, 14, 14, 64)        0         \n",
      " g2D)                                                            \n",
      "                                                                 \n",
      " flatten_1 (Flatten)         (None, 12544)             0         \n",
      "                                                                 \n",
      " dense_2 (Dense)             (None, 128)               1605760   \n",
      "                                                                 \n",
      " dense_3 (Dense)             (None, 1)                 129       \n",
      "                                                                 \n",
      "=================================================================\n",
      "Total params: 1662209 (6.34 MB)\n",
      "Trainable params: 1662209 (6.34 MB)\n",
      "Non-trainable params: 0 (0.00 Byte)\n",
      "_________________________________________________________________\n"
     ]
    }
   ],
   "source": [
…
